data.pth (torch, 10303 bytes, 6 tensors)

l1.weight f4 [8, 114]
00000000: 68aa 7c3f 96df 833e ad18 c2bc 78ae a83f
00000010: 1a17 c2bd 8dd8 5abc ef13 f63c 6eec 0cbe
00000020: 395c 6f3f 0d46 873f fd7d 9c3f 6d99 9e3e
00000030: 9532 033f c6c7 8d3f 8228 8bbc 83dd 073f
00000040: e975 12bf b953 dc3e ca58 043f abed 173f
00000050: 118d 563f c5da 653f 009f a23f fc73 b5be
00000060: d177 09bf 23db d33f 3c98 0a3e 282b 73bf
00000070: c670 4e3f 3d72 a9bf a46e 2f40 0dbc acbd
00000080: 48d3 25bf cf0a 34bf 9986 2c3d 6e6f 013e
00000090: 574c 5f3f feda 82bf 86c9 733e 595a 27bf
000000a0: 5b6d 38be 62fe c23c 2626 a63e b82a 573f
000000b0: 000f 683f e824 333f dee7 603f 1dae 583f
000000c0: 7697 4e3f a660 803f 14a4 d43c 857c 823e
000000d0: 4a3f 2dbf bcf3 3d3e a8b4 80be adc7 07bf
000000e0: 9454 da3f 0877 47bf ef0c d5be 8ec2 f2bc
000000f0: 0893 1c3e c5fe 733f 890f a43f 30c8 b73e
00000100: a44b 213f fcea 853e 8de3 4c3f 3ec8 993e
00000110: 2ee0 403e 12b8 1140 19b1 343f 8c56 9dbf
00000120: ef6a d83f d198 eb3f 09d0 153e da2b 07c0
00000130: 04cf c93e 5364 383f ebaf b6bd 2691 d13d
00000140: de20 92bf 1338 553f 6728 4bbf 8e26 1fbf
00000150: 0e76 94bf 07e0 ff3f 1f2b d83f bbdf 15bf
00000160: 54b8 e13f 3be5 373d 48b5 db3e 2354 0d3f
00000170: be98 053f 3020 0c3f ea9b 863e 759c f93f
00000180: 8951 7bbe 8dfa b63e 4842 ef3e 14f4 cebd
00000190: a88c cbbd f508 ae3e d5a5 0fbf 8afc 3e3f
000001a0: b375 133d d174 a53e 96df 26bf 2be6 193f
000001b0: dfc3 c73f d9c4 e43f e8ad 363e 09ad a1bd
000001c0: 4d1c fb3d 57f9 533e c984 963e c21f babf
000001d0: 17cd 063f 9afd ae3e 8d7d 8cbe bec9 313e
000001e0: 581f d4bd 18c8 58bd 2337 a6bd c124 213f
000001f0: 0437 f1bf be54 3e3e 215a 803e 681a 51bf
00000200: 74b7 25bc cf56 b13e 0e4e 1fbf 727f b03f
00000210: dc30 123f 52e2 1dbf 4f01 0840 3052 d53e
00000220: 2892 a43e 5392 cebd e288 08be fdcd da3f
00000230: b020 a03f 424b 8a3f 74a7 b43e 1cd6 2dbf
00000240: 8e82 0abf fd28 3ebf d3cd 9cbe d31a cfbf
00000250: 6cde ac3e 5036 0b3f f098 e23c 3ed0 b2be
00000260: 8eca f83e bfff c8bf 34db ac3f 247c 443f
00000270: 9ffe 0fbf 5b84 1abf af18 fb3e aab2 26bf
00000280: 24cc fa3e f740 093f 0adc 633e 749f d33e
00000290: 3e53 153f 2c8e ba3e 79fe 513f 685b c73f
000002a0: 9f87 2b40 f757 693f 31e0 053f 813f db3e
000002b0: 9ea1 513f 46bb d03e 1cc1 adbf 8239 d73e
000002c0: 510a 693d 22d1 843e 1c42 1abf e666 3f3e
000002d0: 921f 023f 4e81 393f 8747 583d b56a 373f
000002e0: 09ba cabe 4ee4 c73f 9251 443e e21e 943f
000002f0: 6698 e63e 6cf3 2c40 0f88 db3f 5e07 c23f
00000300: acca e3be 907d 423f 1730 f5bf b207 b43f
00000310: dd35 0dbd b814 403f be6c bc3e 9db6 f8bf
00000320: c5e7 153f 39af 463f 1f3e ccbf d6f0 b03e
00000330: 4e61 ae3f 06f5 8d3e 8ca1 0bbf c658 9a3d
00000340: 65c5 32bf 2473 2140 3101 bd3f 26d4 ca3e
00000350: 4b7a 383e 2c3f a43e 5b61 db3f e56b aa3d
00000360: 18f1 273f be64 19bf 3579 0c3e 2876 ae3e
00000370: 6e8c 463f de70 0c3f 4978 cc3e a980 193f
00000380: b5ea 533e e206 ff3b 62c6 bc3e f46f 9d3f
00000390: 91b0 5e3f 9717 b03f 9012 6d3e 0d7a d93e
000003a0: e34f d5be 89df 543f de99 b3bc 6813 22be
000003b0: 456e a13e b28e 973f 57cc 3f40 9ac7 bf3e
000003c0: 3da4 0b3f f478 a53f 569b c6bd f89a 2d3f
000003d0: d3ed 1fbf 1438 813f d13b c83e a328 d43e
000003e0: d45e c83f 953b 5b3f 4d9c b53e bfad 963f
000003f0: 23a7 3c3f b975 e3bc fac3 543f b8c5 87bd
0.9869752 0.2575652 -0.023693407 1.3178244 -0.094770625 -0.013357294 0.030038802 -0.13762066
0.93500096 1.0568253 1.2225949 0.3097643 0.5124906 1.1076591 -0.016987089 0.53072375
-0.57211167 0.43032625 0.5169798 0.5934703 0.83809 0.8978694 1.2704773 -0.35440052
-0.5369845 1.655125 0.13534635 -0.94987726 0.8064083 -1.3237988 2.741128 -0.08434305
-0.64775515 -0.7032899 0.04212055 0.12640163 0.8722586 -1.0223081 0.23807344 -0.65372235
-0.18010466 0.02380294 0.3245098 0.8404956 0.9064789 0.6997819 0.878538 0.84640676
0.8069986 1.0029495 0.025957145 0.25485626 -0.67674696 0.18550009 -0.2513783 -0.53039056
1.7057061 -0.77916 -0.4161143 -0.029633787 0.15290463 0.9531062 1.2817241 0.35894918
0.63006043 0.2615584 0.80034715 0.30035585 0.18835518 2.2768598 0.7058273 -1.2292037
1.6907634 1.8406011 0.1463014 -2.1120515 0.39415753 0.7202808 -0.089202724 0.10232763
-1.141628 0.8328869 -0.79358524 -0.62168205 -1.1598527 1.9990243 1.688816 -0.5854451
1.7634377 0.044896346 0.42911744 0.5520651 0.5218619 0.54736614 0.26290828 1.9500872
-0.24542822 0.3573803 0.46730256 -0.10105148 -0.099389374 0.3399121 -0.56112415 0.74604094
0.03600092 0.32315686 -0.65184915 0.60116833 1.560665 1.7872573 0.17839777 -0.07894332
0.12261257 0.20700584 0.29398182 -1.4540942 0.5265669 0.34177858 -0.27439538 0.17362115
-0.10357541 -0.0529252 -0.08115985 0.62946707 -1.8844914 0.18587014 0.25068763 -0.8168092
-0.010114539 0.34636542 -0.62228477 1.3788893 0.57105803 -0.6167346 2.1250799 0.41664267
0.32142758 -0.10086503 -0.13333467 1.7094113 1.2509975 1.0804217 0.35284007 -0.6790483
-0.5410546 -0.74281293 -0.3062578 -1.6180061 0.33763444 0.5437975 0.027660817 -0.349245
0.48592037 -1.5703048 1.3504395 0.76751924 -0.56247896 -0.6035821 0.4904227 -0.6511637
0.48983872 0.53614753 0.22251907 0.4133259 0.5833014 0.36436594 0.8202892 1.557477
2.6801527 0.9114985 0.52295214 0.42821887 0.81887233 0.40767878 -1.3574557 0.42036062
0.056894604 0.25940806 -0.60257125 0.18691596 0.5082942 0.7246293 0.05280259 0.71647197
-0.3959506 1.5616548 0.19171742 1.1571925 0.45038146 2.7023573 1.7150897 1.5158498
-0.44490564 0.75972843 -1.9155301 1.4064848 -0.034475196 0.75031614 0.36801714 -1.9430729
0.5855678 0.7761112 -1.5956458 0.34558743 1.3623445 0.27726 -0.54543376 0.075364634
-0.6983245 2.5226526 1.4765989 0.3961498 0.18015401 0.32079446 1.7139086 0.083213605
0.65602255 -0.59919345 0.13718112 0.3407452 0.7755803 0.5485972 0.3993552 0.59961945
0.20695002 0.007782803 0.36870104 1.229979 0.8698817 1.3757199 0.23151612 0.4247593
-0.4166251 0.8315359 -0.021923956 -0.15827715 0.3152944 1.1840422 2.996847 0.3745697
0.5454748 1.2927537 -0.09697597 0.6781459 -0.62472266 1.0095239 0.39108136 0.41437253
1.5653939 0.8563779 0.3547081 1.1771773 0.7369253 -0.027766095 0.83111537 -0.06629509

l1.bias f4 [8]
00000000: 4e5a 8d3f 7584 823f 92bc 8f3f 9296 a43f
00000010: 6585 163f afd1 ed3e 3e4b 1b3f 6c5c 283f
1.1043184 1.0196673 1.1229422 1.285845 0.58797294 0.46449038 0.60661685 0.65766025

l2.weight f4 [8, 8]
00000000: 8199 f8be 45f0 cfbe 3706 7c3e 31df a33f
00000010: 2539 0a3f a0a7 25bf ec8c 393e a98a 0dbe
00000020: 7ca1 39bf d4a2 f13f f997 f33e bdd0 0140
00000030: 1002 08bf 4d8b adbe 7e6e 1b3c 8126 0d3f
00000040: ca09 263f 9284 20bf e116 61bf a8a2 b13e
00000050: 91f7 bd3f dc46 fb3f fa24 49be 2398 0e40
00000060: 32f3 883f 0cc4 c43e 2e85 79be 94ae 593f
00000070: aef1 cc3d 8b5a 8f3f 2f79 0ac0 7c93 45bf
00000080: dfdc 1740 ac8f 02c0 bf18 3340 8786 a8be
00000090: 9633 3ebf 7571 18bd 1bef bdbf c922 e43f
000000a0: 8d28 813f ff3a 5f3d b2c0 e63f 8826 86be
000000b0: e80f 0c40 af9d a0bd 1837 583f 1033 16bf
000000c0: 68fb 1040 904b a73f b881 3f3f cb61 33bd
000000d0: 17de 0e3f 74ef eabe f3ed f33f 45ab 7dbf
000000e0: 777e b43f e8b0 ae3f 7429 0c3f cfe2 07bf
000000f0: d74a 4740 4be3 f3be ef26 e9bf 5e27 633f
-0.48554614 -0.40613 0.24611746 1.2802488 0.53993446 -0.647089 0.18120164 -0.13822426
-0.7251203 1.8877816 0.47576883 2.0283654 -0.5312815 -0.3389534 0.009486793 0.5513688
0.64858687 -0.62702286 -0.87925535 0.3469441 1.4841176 1.9631 -0.19643012 2.2280357
1.0699217 0.38430822 -0.2436721 0.8503201 0.10007034 1.1199507 -2.1636465 -0.7717817
2.372856 -2.040019 2.7983854 -0.32915136 -0.74297464 -0.037217576 -1.4838594 1.7823116
1.00905 0.054499622 1.8027556 -0.26201272 2.1884708 -0.07842576 0.84459066 -0.58671665
2.2653446 1.3069935 0.7480731 -0.043794435 0.5580763 -0.45885813 1.9056991 -0.9908946
1.4101094 1.3647738 0.5475075 -0.5308046 3.1139429 -0.47634348 -1.8215007 0.88731945

l2.bias f4 [8]
00000000: 2fcf 463f 4b6e 6e3f 8881 a83e 37e2 473f
00000010: 9d28 7f3f e8a8 9c3e 0ea9 7b3f 3ac0 283e
0.7765989 0.93137044 0.32911325 0.7807955 0.99671346 0.30597615 0.9830483 0.16479579

l3.weight f4 [45, 8]
00000000: f038 723e 801a 18c0 53be a53b 4e9b ebbf
00000010: 0966 1c3f 0101 3e3e c3e6 b7bf 823c 9d3e
00000020: 3702 98be e3e3 e03e 5682 52bf c8fb 0a3f
00000030: b644 58c0 ac06 acbf 8298 a3be 4539 333f
00000040: 22d7 9bbf d86e 60bf 5884 a13d 2be6 06c0
00000050: 17f5 273f e553 15bf 6e3d 0dbe 088b 0bbf
00000060: 20c7 e3bb 351a 0abf ceb0 373f ebc4 bdbf
00000070: ba55 56be f2ed febe 8eb4 e2bf f522 0cbf
00000080: a09f 74bf aa74 19bf 7ab4 2d3f 2ecc 5f3e
00000090: 55a0 5ebd dc97 57c0 9d6b 49c0 dac9 71bc
000000a0: b42b 05c0 91c3 31bf ad8c f43e ab37 08bf
000000b0: e1c4 5e3f 4622 90bf e244 25c0 ba28 62bf
000000c0: 6216 12c0 7b14 4bc0 85b4 ce3e 1b4b 22bf
000000d0: 801b 1cbe d4db 2cbe ce77 cdbe a852 d63e
000000e0: 1688 23c0 93dd 2ec0 3733 083f 8e47 813e
000000f0: a31f 403d e567 bcbe 66b3 36c0 5616 023f
00000100: d3ca 0cc0 4d5e 64c0 28c2 843d e1f3 cdbe
00000110: 8640 8f3f b0eb b8be 5a5f 88bf 4096 b1be
00000120: 1090 dabe 8fe1 40bd 90ad 283f af00 52be
00000130: 7be7 44c0 cbf1 aabf 0647 dabf 22b4 9f3e
00000140: 28d2 e6be 9b8c 4ebd b8bd 643c c38b 003f
00000150: 5aef 193e 4065 63bf 0b00 02c0 df88 9abe
00000160: 0850 0fbf 8455 7dbf 5ba1 d53e 987d 123f
00000170: 9dda 53bf affc 26bd d944 75c0 6f8d a13e
00000180: 76d3 f53e 4160 a4be cdd8 83bf 24fd 853f
00000190: 2159 bd3e cdcb ad3e 3ba9 db3d cdd1 5ac0
000001a0: 4f46 f8bf f275 4ec0 9f2e adbf 877a 62bf
000001b0: 1595 343e 9c38 5f3e 3953 313e ac0c 063f
000001c0: 1d56 133e 8c93 06bf 88ba 82bf 7982 07bf
000001d0: 2c02 4b3e 2770 b03e 6cc4 7cbf f0ee 6f3e
000001e0: 0709 6c3f d53f 913e d862 3cbf 764c 56bf
000001f0: 0762 e03e cf37 02bf 3d78 dbbf 265f 16bf
00000200: 29a6 c73e b3f5 40be ce66 a7bf 9d4d 31bf
00000210: 416c f9bf f1d9 ba3e b6b2 54bf 6512 353f
00000220: 77eb 41be ba0a 19be b694 61c0 2e23 eebf
00000230: ece7 923d 71f4 ac3e 04e8 833f 8b8e 76c0
00000240: 93c0 64bf 0e1e 4dbf 72d7 9ebe b379 9c3f
00000250: 510b 35c0 aaf0 eebe a02d 7abc da60 233f
00000260: 7944 4bbe 5305 363d 6b1f 8dbe 3c2e 66bf
00000270: 7c85 45bf 2060 12bf 0ed2 d7bf 8545 483f
00000280: 1def 7ebf bea6 9fbf 9c86 85bf e96b 5e3e
00000290: b428 64bf 2497 043f f9ab 18be c594 e13e
000002a0: 2d44 173f 1c57 1d3f e7f2 13bf e1bc 313f
000002b0: bb81 06c0 34bd c1bf 8eb7 a4be f46f 52c0
000002c0: 0c61 263e 08ee 52be b7b2 2d3f 8af4 b0be
000002d0: e1e3 3b3f 6504 3ac0 5ff7 13c0 3dc7 47c0
000002e0: 09f2 0d3f 8566 453f c7d7 c4bf 8ec7 d43e
000002f0: 185d a1bf dfc9 a3bf da56 183e 8514 29c0
00000300: 56ef c7be 660a 7a3e b85a 0cc0 18c1 f3bf
00000310: 688c 20c0 fd1f 64be fe29 4c3f b6a7 19bf
00000320: 3d16 d2be 22f4 21be 27e1 26be 6547 5dbe
00000330: 0b27 7a3f d515 2abf f243 77bf 3f86 c4bf
00000340: d34a 7abf ea53 9dbf e899 a0bd b077 183f
00000350: f1b1 223f d2d1 8bbe 8fb7 c7bf f5ff 62be
00000360: 8ee8 78bf 3d31 57c0 24f8 d2be 8a80 393f
00000370: a8f8 2d3e 108d 353e 37a4 bdbe 664a 0d3e
00000380: 822e d4bf 6074 40c0 1352 51bf c913 21bf
00000390: e7b0 5c3f 4517 9c3d 4707 1b3f 6c46 63bf
000003a0: ca9d 18c0 f349 64bf 1e87 383d 6272 b4be
000003b0: 2689 a6bf 2f59 3ebd cd8c 443e 6815 2d3e
000003c0: a76c 4b3e cfac a9bf 7e99 6f3e 1a81 8c3d
000003d0: 812d 31bf 8f4c 31be fd9d 4dbf 2a3b 613e
000003e0: 608a d43e 409b 2dbe eeff 853e 6162 eabe
000003f0: 005e f5be f886 25be 9e85 35be f09b d4bf
0.23654532 -2.3766174 0.005058089 -1.840677 0.61093193 0.1855507 -1.4367298 0.30710226
-0.2968919 0.43923864 -0.82230127 0.5429044 -3.3791938 -1.3439536 -0.31952292 0.7000926
-1.2175028 -0.87669134 0.07886571 -2.1077983 0.6560835 -0.5833114 -0.13792965 -0.5450902
-0.006951228 -0.5394624 0.7175416 -1.482572 -0.2093114 -0.49790913 -1.7711351 -0.5474084
-0.9555607 -0.5994364 0.6785351 0.21855232 -0.054352123 -3.3686438 -3.1471932 -0.014757598
-2.0807924 -0.69439036 0.47763577 -0.5320994 0.87019163 -1.126046 -2.5823293 -0.88343394
-2.2826161 -3.173125 0.403721 -0.6339585 -0.15244865 -0.16880733 -0.40130466 0.41859937
-2.555181 -2.7322738 0.5320315 0.25249904 0.04690517 -0.36798015 -2.8546996 0.5081533
-2.1998794 -3.5682557 0.06482345 -0.40225127 1.1191566 -0.36117315 -1.0654099 -0.34684944
-0.42688036 -0.04709011 0.65889835 -0.20508073 -3.0766284 -1.3355039 -1.7052925 0.31192118
-0.45082211 -0.05042706 0.013961248 0.5021326 0.15032712 -0.8882637 -2.0312526 -0.3018255
-0.55981493 -0.9895861 0.41724667 0.5722289 -0.8275545 -0.04076832 -3.8323271 0.31553218
0.48012894 -0.32104686 -1.0300537 1.0467877 0.36982062 0.3394455 0.107256375 -3.4190552
-1.9396456 -3.2259488 -1.3529853 -0.8846821 0.17634995 0.21798939 0.17316903 0.52363086
0.14388318 -0.5256889 -1.0213175 -0.5293346 0.19825047 0.34460565 -0.98737216 0.23430991
0.92201275 0.28369012 -0.73588324 -0.8371042 0.4382479 -0.5086641 -1.7146069 -0.58738935
0.38993958 -0.18843727 -1.3078249 -0.69259053 -1.9486161 0.364944 -0.8308519 0.7073119
-0.18937479 -0.14945498 -3.5247016 -1.8604486 0.07173142 0.33780244 1.030518 -3.8524501
-0.89356345 -0.80123985 -0.31023747 1.222464 -2.8288157 -0.46667987 -0.015269667 0.6381966
-0.19850339 0.04443867 -0.27563033 -0.899143 -0.77156806 -0.57177925 -1.6860979 0.7823108
-0.9958361 -1.2472761 -1.0431705 0.21720852 -0.8912461 0.5179312 -0.14909352 0.44058815
0.59088403 0.61461043 -0.57792515 0.6942883 -2.1016681 -1.5135865 -0.3217129 -3.288083
0.16247958 -0.20598614 0.6785082 -0.34561568 0.7339459 -2.9065182 -2.3119733 -3.1215355
0.5544744 0.7710956 -1.537835 0.41558498 -1.2606535 -1.2795981 0.14876881 -2.6418774
-0.39049786 0.24418029 -2.193037 -1.9043303 -2.5085697 -0.22277828 0.79751575 -0.6002153
-0.4103259 -0.15815786 -0.16296826 -0.21609266 0.97715825 -0.66439563 -0.9658805 -1.5353469
-0.9777042 -1.2291234 -0.07841855 0.5955763 0.6355277 -0.27308518 -1.5602893 -0.22167952
-0.9722985 -3.3623803 -0.4120494 0.7246176 0.16989386 0.17729592 -0.37039348 0.13797912
-1.6576693 -3.007103 -0.8176586 -0.62920815 0.8620743 0.07621626 0.6055798 -0.8877933
-2.3846307 -0.8917534 0.045050733 -0.35243517 -1.3010604 -0.04647177 0.19194336 0.16902697
0.19865666 -1.3255862 0.23398396 0.06860562 -0.6921006 -0.17314361 -0.80319196 0.21995226
0.41511822 -0.16953754 0.2617182 -0.45778182 -0.4792328 -0.16164768 -0.17726752 -1.6610088

l3.bias f4 [45]
00000000: 8cf3 cfbe 87c6 983e 667f a1be 15ce e43e
00000010: a524 483e 9b68 42be e561 a83d a9ec 993e
00000020: bb79 973c ad8e 24be 112e 7fbe 70f4 aabe
00000030: 6457 4c3e 409a 7bbe c191 68be d99c 36be
00000040: 5a5f e4be 2c7f e8bd d521 c6be 311b 093e
00000050: ac62 9bbe 10fc 3a3e 27cb ecbe ccd4 8bbc
00000060: 1ff3 3f3e 2ccb 30bb dfba 5f3c c306 88be
00000070: fff9 cf3e cef7 cfbe 04a9 8abe 6344 09bd
00000080: 9705 ddbe cf27 8dbd bfbf 853e ef3c 1abd
00000090: d5ab 90bd ac9a 49be 6645 ae3e c7c9 36bd
000000a0: fab3 513e 996a 4e3e 0876 253e 7db9 7dbe
000000b0: 8fa8 c33a
-0.406155 0.29838964 -0.3154251 0.44688478 0.19545229 -0.18985216 0.08221797 0.3006337
0.018490663 -0.16070051 -0.24919917 -0.33389616 0.19955212 -0.2457056 -0.2271185 -0.1783327
-0.44603997 -0.11352381 -0.38697687 0.13389279 -0.30348718 0.18260217 -0.46248743 -0.017069243
0.18745087 -0.0026976569 0.013655393 -0.2656766 0.4062042 -0.40618747 -0.27082074 -0.033512484
-0.43168327 -0.068923585 0.26122853 -0.037655767 -0.07064024 -0.19687909 0.34037322 -0.044626024
0.20478812 0.20157851 0.16158307 -0.2477779 0.0014927554
